project/ju_py_bot/data.pth (torch, 5015 bytes, 6 tensors)

l1.weight f4 [8, 54]
0	0xbe27803e	-0.16357514
1	0xbd246074	-0.040131047
2	0xbeed38c4	-0.4633237
3	0xbe4dac75	-0.20085318
4	0x3e333112	0.17499188
5	0x3f77f7a5	0.9686225
6	0xbd6d0a16	-0.057870947
7	0xbebef015	-0.37292543
8	0xbef85309	-0.4850085
9	0xbecb008b	-0.39648852
10	0xbe95de02	-0.2927094
11	0xbdc78ce2	-0.09743668
12	0x3ec22f74	0.3792683
13	0xbe19109e	-0.14947745
14	0xbdc918fc	-0.098192185
15	0xbe6c602b	-0.2308356
16	0xbe49d13b	-0.19708721
17	0x3f45cc33	0.7726471
18	0x3f191dfa	0.59811366
19	0xbeff5525	-0.49869648
20	0xbe5de65f	-0.21669911
21	0xbeea5deb	-0.4577478
22	0xbef6411c	-0.4809655
23	0xbc19c686	-0.009385711
24	0xbddca0ef	-0.10772883
25	0xbee58370	-0.4482684
26	0x3f0a42bf	0.54008096
27	0xbdbe161a	-0.09281559
28	0x3edfca33	0.43708953
29	0xbc9efaa5	-0.019406626
30	0x3f3e8a8e	0.7443017
31	0xbd345b2e	-0.04403227
32	0x3d37f7da	0.044914104
33	0xbf249430	-0.64288616
34	0x3e1206cb	0.14260404
35	0xbe60f993	-0.21970205
36	0x3ec3fc89	0.38278607
37	0xbed5622d	-0.41676465
38	0xbe54f45a	-0.20796338
39	0xbe47c812	-0.19509915
40	0x3f1c76be	0.61118686
41	0x3f0d0869	0.5509096
42	0xbe0e8b36	-0.13920292
43	0xbe015998	-0.12631834
44	0xbeac73ab	-0.33681998
45	0x3d3e3ce9	0.046444807
46	0xbf2eeafa	-0.68327296
47	0xbe99201c	-0.2990731
48	0x3eb29525	0.34879413
49	0x3f52f309	0.8240209
50	0xbdcca8ee	-0.09993158
51	0x3f20cc04	0.62811303
52	0xbdeb695c	-0.11494705
53	0x3d329cac	0.043606445
54	0xbe7832e3	-0.24238162
55	0xbf040576	-0.5157083
56	0xbc73fab1	-0.014891312
57	0x3e85b39a	0.26113588
58	0x3f02a5e9	0.5103441
59	0x3d9da074	0.0769662
60	0xbcaf72a6	-0.021416973
61	0xbe43600d	-0.19079609
62	0x3de37cfa	0.11107822
63	0xbdcc5cdb	-0.09978648
64	0x3e8a15ae	0.26969665
65	0x3f07773a	0.529163
66	0x3e79c303	0.24390797
67	0x3f03d7cd	0.5150116
68	0xbe4388ce	-0.19095156
69	0x3eb7d5d3	0.35905322
70	0x3ede6ba4	0.43441498
71	0x3ddc8832	0.10768165
72	0x3e11e55e	0.14247653
73	0x3f00a91b	0.50258034
74	0xbe5915af	-0.21199678
75	0x3f0a031d	0.53911
76	0x3ef36e85	0.47545257
77	0x3f2df140	0.67946243
78	0x3eb3480a	0.350159
79	0x3eab639d	0.33474436
80	0x3e9456e0	0.2897253
81	0xbf0366dd	-0.5132883
82	0x3e031d17	0.12804066
83	0xbe8a6507	-0.27030203
84	0x3e873ef8	0.2641523
85	0x3ed0b361	0.40761855
86	0x3bd12a6d	0.0063832314
87	0x3dcb64c5	0.0993133
88	0xbe3c771a	-0.18404809
89	0x3ebaec9b	0.3650864
90	0x3e757abc	0.239726
91	0xbdae74da	-0.085183814
92	0x3bb2fb32	0.0054620737
93	0xbc85602b	-0.016281208
94	0x3e084f4e	0.13311502
95	0x3e7ebbb1	0.24876286
96	0x3ef73467	0.48282167
97	0xbdf8e59c	-0.121531695
98	0x3edf66c8	0.43633103
99	0xbe866bfe	-0.26254267
100	0xbe9d0a8d	-0.30672112
101	0xbe9bf87e	-0.30463022
102	0x3eebeecc	0.46080625
103	0x3e964666	0.29350585
104	0x3efc5709	0.49285153
105	0x3e85e784	0.26153195
106	0xbcc80ba9	-0.024419622
107	0x3e97b24b	0.29628214
108	0x3f3c7fe9	0.73632675
109	0x3e797a2a	0.24363008
110	0xbef69ccf	-0.4816651
111	0xbeac1bb0	-0.33614874
112	0xbedcdbde	-0.43136495
113	0xbed75d50	-0.4206338
114	0xbe784528	-0.24245131
115	0xbee5184a	-0.44745094
116	0xbe39d258	-0.18146646
117	0xbeddbe12	-0.43309075
118	0xbea8fc89	-0.3300517
119	0x3e647314	0.22309524
120	0x3da9862c	0.082775444
121	0x3e6aae88	0.22918141
122	0x3f1b82c0	0.60746384
123	0x3e4c9dfa	0.19982138
124	0xbe4ff397	-0.20307766
125	0xbea309a4	-0.31843293
126	0x3f0bf935	0.54677135
127	0xbf088812	-0.53332627
128	0x3f069d37	0.5258364
129	0xbf088258	-0.5332389
130	0xbf08852b	-0.533282
131	0xbd8e543f	-0.069496624
132	0x3e49162a	0.19637361
133	0xbeab9664	-0.33513176
134	0x3f2e4bbf	0.6808433
135	0xbe4c975e	-0.19979617
136	0x3e7fbfea	0.24975553
137	0xbea8b18f	-0.32947966
138	0xbe4e95d8	-0.20174348
139	0x3ef37588	0.47550607
140	0x3ed95757	0.42449448
141	0xbec8c9b1	-0.39216378
142	0xbdd009d7	-0.10158127
143	0x3da0a8c5	0.0784469
144	0x3e996202	0.29957587
145	0xbe38ab0c	-0.18033999
146	0xbe031c56	-0.12803778
147	0xbe463c2a	-0.19358888
148	0xbe5b4e68	-0.21416628
149	0x3f4b7632	0.79477227
150	0x3e9c73af	0.3055701
151	0x3f14a6ef	0.5806722
152	0x3d3cfc50	0.04613906
153	0xbe812a52	-0.252276
154	0x3f90577f	1.1276702
155	0x3f0b8c5b	0.5451104
156	0x3e0eda76	0.13950524
157	0x3f466b27	0.7750725
158	0x3e61a858	0.22036874
159	0x3f325db3	0.69674224
160	0xbe2ce377	-0.16883646
161	0x3e83f1be	0.25770372
162	0x3e81154f	0.2521157
163	0x3f574edc	0.84104705
164	0x3e7ba342	0.24573997
165	0x3ee233a3	0.4418002
166	0x3ee05163	0.43812093
167	0xbeeb3f1b	-0.45946583
168	0x3eec377b	0.46136078
169	0x3e9b7b54	0.3036753
170	0x3e97d94a	0.29657966
171	0x3ec5a2b0	0.38600683
172	0x3f0bb211	0.5456858
173	0xbebb79f7	-0.3661649
174	0x3f0a0d3c	0.53926444
175	0xbeb490cf	-0.3526673
176	0x3f2a223d	0.66458493
177	0xbe883222	-0.26600748
178	0x3ee5c42c	0.4487623
179	0xbf286a06	-0.6578678
180	0x3eae17aa	0.3400243
181	0x3f1cc49e	0.61237514
182	0x3ea6a9d4	0.32551444
183	0x3f01d092	0.5070888
184	0x3f27cd99	0.6554809
185	0x3ec16b30	0.3777709
186	0xbdb1e672	-0.08686532
187	0x3ea83fa1	0.32861045
188	0x3e8c6594	0.27421248
189	0x3f4a4897	0.79017013
190	0x3e0781f7	0.13233171
191	0x3f36fb8c	0.7147758
192	0xbed146a8	-0.4087422
193	0xbee25a27	-0.44209406
194	0x3dc51e14	0.096248776
195	0x3e645d28	0.22301161
196	0x3f659585	0.89681274
197	0xbe9de59a	-0.30839235
198	0x3cab881c	0.020938925
199	0x3e53cd7f	0.2068386
200	0x3e972b05	0.2952501
201	0x3eb0e78e	0.34551662
202	0xbe9feaef	-0.31233928
203	0x3e4f5141	0.2024584
204	0xbe865bb4	-0.2624184
205	0x3f3ab55b	0.72932976
206	0xbe69bcfa	-0.22825995
207	0x3f72adc7	0.94796413
208	0x3e5234ef	0.20528005
209	0x3ece56f0	0.40300703
210	0x3ec1dfc8	0.37866044
211	0x3e6930cd	0.22772522
212	0xbe943067	-0.28943178
213	0x3e137eb3	0.144038
214	0x3ea20e1e	0.31651396
215	0x3ee738ad	0.45160428
216	0x3f12aa45	0.5729106
217	0x3e28c6fd	0.16482158
218	0xbd94a03b	-0.07257124
219	0x3ee33885	0.44379058
220	0x3e66e0c0	0.22546673
221	0xbeface8f	-0.48985717
222	0x3adbd790	0.0016772617
223	0xbea03f0a	-0.31298095
224	0xbdd9d6c5	-0.10636667
225	0xbe1019c5	-0.1407233
226	0x3e82033d	0.25393096
227	0x3f3f236e	0.74663436
228	0x3c6b1a62	0.014349552
229	0x3f106f5e	0.5641993
230	0x3e08173e	0.13290116
231	0x3eeb60ef	0.45972392
232	0x3ec0dcd2	0.37668473
233	0xbefadd18	-0.48996806
234	0xbc191ecb	-0.0093457205
235	0x3ea617fc	0.32440174
236	0x3eab2e04	0.33433545
237	0x3edc11cb	0.42982325
238	0x3ec110e1	0.3770819
239	0x3f1d17e1	0.6136456
240	0x3f0d21e4	0.5512984
241	0x3eb809cb	0.3594497
242	0xbd9907f7	-0.07472222
243	0xbe64d283	-0.22345929
244	0xbe72a776	-0.23696694
245	0xbe8b89c4	-0.27253544
246	0xbee7e8a7	-0.45294687
247	0x3ef0bf7a	0.47021085
248	0x3ec3a09c	0.38208473
249	0xbe40253b	-0.18764202
250	0x3d77c4cd	0.06049042
251	0x3f070662	0.52744114
252	0xbe18e141	-0.14929678
253	0xbe7cc728	-0.24685347
254	0xbd3b55d0	-0.045736134
255	0xbe219896	-0.15780863

l1.bias f4 [8]
0	0x3f2eefbb	0.6833455
1	0x3f42532c	0.7590816
2	0x3f088777	0.533317
3	0x3f741605	0.953461
4	0x3efadf94	0.48998702
5	0x3ed675a2	0.41886622
6	0x3f3733bb	0.7156331
7	0x3f034ea8	0.51291895

l2.weight f4 [8, 8]
0	0x3fd61a7e	1.6726835
1	0x3f089058	0.5334525
2	0x3eb26e02	0.34849554
3	0x3eb80a04	0.3594514
4	0xbf099208	-0.5373845
5	0xbe5c2914	-0.21500045
6	0x3f8ba24e	1.0908906
7	0xbec43cc6	-0.38327616
8	0xbfa74aec	-1.3069739
9	0xbf1ff3f4	-0.6248162
10	0x3f325fc2	0.69677365
11	0x3f4f7a33	0.81045836
12	0x3ee6eea3	0.4510394
13	0x3f8e37bb	1.1110758
14	0x3f558408	0.8340459
15	0xbf8baefc	-1.0912776
16	0xbd3d3411	-0.046192233
17	0xbe1e7dd5	-0.15477689
18	0xbe2899d0	-0.16464925
19	0xbeb8b8c2	-0.3607846
20	0x3e2824f8	0.16420352
21	0x3d88bc6e	0.06676565
22	0x3e1ecc4b	0.15507619
23	0x3dc42af4	0.09578505
24	0x3cccc32c	0.024995409
25	0xbe93a9ef	-0.28840587
26	0xbe6b82f4	-0.22999173
27	0xbeb34ff6	-0.35021943
28	0x3e5ed48a	0.21760765
29	0x3b75e95a	0.0037523122
30	0xbe2dad9b	-0.16960756
31	0x3e37d420	0.17952013
32	0xbf458104	-0.7714999
33	0x3f6fec96	0.93720376
34	0xbe44cb05	-0.19218071
35	0xbe7bf7d1	-0.24606253
36	0x3f5bc744	0.8585093
37	0x3f83fdca	1.0311825
38	0x3ee6b502	0.45059973
39	0x3f60b384	0.8777392
40	0xbe84703d	-0.2586688
41	0x3ed5d488	0.4176371
42	0xbf9bf17e	-1.2183073
43	0x3f624f98	0.884027
44	0xbf03f98a	-0.5155264
45	0x3f3682eb	0.71293515
46	0x3f79e6d3	0.97617835
47	0x3bc4c468	0.0060048588
48	0xbe90fb70	-0.28316832
49	0x3fa3feb2	1.2812102
50	0x3fa1d4c7	1.264306
51	0x3f4ded69	0.80440384
52	0x3faf2938	1.3684454
53	0xbe1cb420	-0.15303087
54	0xbf92a611	-1.145693
55	0x3f809670	1.004591
56	0xbe82d143	-0.2555028
57	0xbd85de8b	-0.06536587
58	0xbf47a6fb	-0.77989167
59	0x3f8ee666	1.1164062
60	0x3eefd123	0.46839246
61	0xbf96175f	-1.1725882
62	0x3e24009f	0.16015862
63	0x3f1bb329	0.6082025

l2.bias f4 [8]
0	0x3f150f43	0.5822641
1	0x3ea9eb63	0.33187398
2	0xbe84b2e7	-0.25917742
3	0xbda87def	-0.08227145
4	0x3e421923	0.18954901
5	0x3f0c75d2	0.5486728
6	0x3edb415f	0.42823312
7	0x3f21cbfd	0.63201886

l3.weight f4 [7, 8]
0	0xbfca43b4	-1.5801911
1	0xbf84ab5b	-1.0364794
2	0x3b230b43	0.0024878539
3	0xbe116fd6	-0.14202818
4	0x3f5d59b2	0.8646499
5	0xbf9bfbfa	-1.2186272
6	0x3eb913dd	0.36147967
7	0xbf829f11	-1.0204793
8	0x3e09b9dd	0.13449807
9	0x3f111645	0.56674606
10	0xbe8110d2	-0.25208145
11	0x3b0a3eb8	0.0021094512
12	0xbfb84c78	-1.4398336
13	0xbc36363c	-0.011121329
14	0xbf3395fc	-0.70150733
15	0x3f4009aa	0.75014746
16	0x3f7ad7de	0.9798564
17	0xbf09a4a7	-0.53766865
18	0x3e9400cb	0.28906855
19	0xbe99811a	-0.2998131
20	0xbeff6023	-0.49878034
21	0x3e4e8ccd	0.20170899
22	0xbf92e523	-1.1476177
23	0xbf6774bd	-0.90412503
24	0xbf2c473f	-0.6729621
25	0xbf70f6e0	-0.941267
26	0xbcb355d0	-0.021891505
27	0xbea6ff3b	-0.326166
28	0xbd3b1df4	-0.045682862
29	0x3dff6611	0.124706395
30	0x3ed5f335	0.41787115
31	0x3f7a73fc	0.9783323
32	0x3f037f3c	0.5136602
33	0xbf51f6c7	-0.8201718
34	0xbd7280ef	-0.059204992
35	0x3cc96a63	0.024586862
36	0xbfb73fef	-1.4316386
37	0xbf9bf9c1	-1.2185594
38	0x3e9b4428	0.30325437
39	0x3e577428	0.21040404
40	0xbefe29c4	-0.4964124
41	0x3efae6de	0.49004263
42	0xbe93a919	-0.2883995
43	0xbe2d4324	-0.16920143
44	0x3eb1298e	0.34602016
45	0x3f0bde0b	0.54635686
46	0xbf599f9f	-0.8500919
47	0xbf0195e6	-0.5061935
48	0xbf6f1eec	-0.9340656
49	0x3f483a2e	0.78213775
50	0x3dab0e14	0.083522946
51	0x3e808eb3	0.2510887
52	0x3e88896f	0.26667354
53	0xbf4e3308	-0.8054662
54	0x3e5c68c3	0.21524338
55	0xbf484882	-0.7823564

l3.bias f4 [7]
0	0x3e3abfec	0.18237275
1	0xbe81de47	-0.25364897
2	0x3f120de5	0.5705245
3	0xbe3b92dd	-0.18317743
4	0xbd99ebd2	-0.07515682
5	0xbdb82025	-0.08990506
6	0x3e0569c8	0.13028634
